model.tflite (tflite, 2384 bytes, 3 tensors)

sequential/dense/MatMul i1 [16, 1] scale=0.005179941 zero_point=0
00000000: 4b79 e99f e328 26b6 dad4 46e7 fcff 7f54
0.3884956 0.6267729 -0.11913865 -0.5024543 -0.1502183 0.20719765 0.19683777 -0.38331565
-0.19683777 -0.22791742 0.3625959 -0.12949853 -0.020719765 -0.005179941 0.65785253 0.43511507

sequential/dense_1/MatMul i1 [16, 16] scale=0.008111047 zero_point=0
00000000: 10b3 ea2c 312e 43fe 1d10 0bd2 562a c4ba
00000010: 0eb7 ecef cf01 0c2c e5cc e1fd eb1c e6e4
00000020: eb09 11db dbe4 e9d1 fc16 f609 13cc d8ea
00000030: 35f7 16d8 261d fa35 f604 e92c 7f66 c0e4
00000040: 9bc5 20e5 0620 cb1f 1026 fc27 3e38 db0b
00000050: a1dd 2fd1 e9dd 2e06 14df 21eb 1e4d ddbf
00000060: 3206 26e5 cfdf 2bd1 dcde dc14 cad7 da1d
00000070: 0828 eed4 f1cf cb2a 161a 01ef 06d4 e2f3
00000080: dad8 09e5 fbf6 42cd efcc faf8 4615 a4e0
00000090: d5fa cee1 33d1 f1db 22ff cfef 1a01 17d5
000000a0: e652 0bf4 26f2 f6cf 3411 25cf e5f0 2628
000000b0: 3025 cf26 ccea 1212 f31f e600 0f19 f1e9
000000c0: 0b0f f6e4 fd06 12d1 11eb 01fc 5717 f50b
000000d0: 1f00 0021 d320 da2d df17 deef d2d7 d616
000000e0: d4fe ec27 311e f5de 111a e6d4 dae1 f5ef
000000f0: c5f0 dccc d337 382e e421 3405 5555 c2a9
0.12977675 -0.6245506 -0.17844303 0.35688606 0.3974413 0.37310815 0.5434401 -0.016222093
0.23522036 0.12977675 0.089221515 -0.37310815 0.69755 0.34066397 -0.4866628 -0.5677733
0.11355466 -0.5921064 -0.16222093 -0.13788779 -0.3974413 0.008111047 0.09733256 0.35688606
-0.21899825 -0.42177442 -0.25144243 -0.02433314 -0.17033198 0.22710931 -0.21088721 -0.22710931
-0.17033198 0.07299942 0.13788779 -0.30010873 -0.30010873 -0.22710931 -0.18655407 -0.38121918
-0.032444187 0.17844303 -0.08111046 0.07299942 0.15410988 -0.42177442 -0.32444185 -0.17844303
0.42988548 -0.07299942 0.17844303 -0.32444185 0.30821976 0.23522036 -0.04866628 0.42988548
-0.08111046 0.032444187 -0.18655407 0.35688606 1.030103 0.8273268 -0.519107 -0.22710931
-0.8192157 -0.47855175 0.2595535 -0.21899825 0.04866628 0.2595535 -0.42988548 0.25144243
0.12977675 0.30821976 -0.032444187 0.31633082 0.50288486 0.45421863 -0.30010873 0.089221515
-0.7705494 -0.28388664 0.38121918 -0.38121918 -0.18655407 -0.28388664 0.37310815 0.04866628
0.16222093 -0.26766455 0.26766455 -0.17033198 0.2433314 0.6245506 -0.28388664 -0.52721804
0.40555233 0.04866628 0.30821976 -0.21899825 -0.3974413 -0.26766455 0.348775 -0.38121918
-0.29199767 -0.27577558 -0.29199767 0.16222093 -0.4379965 -0.3325529 -0.30821976 0.23522036
0.06488837 0.32444185 -0.14599884 -0.35688606 -0.1216657 -0.3974413 -0.42988548 0.34066397
0.17844303 0.21088721 0.008111047 -0.13788779 0.04866628 -0.35688606 -0.2433314 -0.105443604
-0.30821976 -0.32444185 0.07299942 -0.21899825 -0.04055523 -0.08111046 0.5353291 -0.4136634
-0.13788779 -0.42177442 -0.04866628 -0.06488837 0.5677733 0.17033198 -0.7462163 -0.2595535
-0.348775 -0.04866628 -0.40555233 -0.25144243 0.4136634 -0.38121918 -0.1216657 -0.30010873
0.27577558 -0.008111047 -0.3974413 -0.13788779 0.21088721 0.008111047 0.18655407 -0.348775
-0.21088721 0.6651058 0.089221515 -0.09733256 0.30821976 -0.11355466 -0.08111046 -0.3974413
0.42177442 0.13788779 0.30010873 -0.3974413 -0.21899825 -0.12977675 0.30821976 0.32444185
0.38933024 0.30010873 -0.3974413 0.30821976 -0.42177442 -0.17844303 0.14599884 0.14599884
-0.105443604 0.25144243 -0.21088721 0.0 0.1216657 0.20277616 -0.1216657 -0.18655407
0.089221515 0.1216657 -0.08111046 -0.22710931 -0.02433314 0.04866628 0.14599884 -0.38121918
0.13788779 -0.17033198 0.008111047 -0.032444187 0.70566106 0.18655407 -0.089221515 0.089221515
0.25144243 0.0 0.0 0.26766455 -0.3649971 0.2595535 -0.30821976 0.3649971
-0.26766455 0.18655407 -0.27577558 -0.13788779 -0.37310815 -0.3325529 -0.34066397 0.17844303
-0.35688606 -0.016222093 -0.16222093 0.31633082 0.3974413 0.2433314 -0.089221515 -0.27577558
0.13788779 0.21088721 -0.21088721 -0.35688606 -0.30821976 -0.25144243 -0.089221515 -0.13788779
-0.47855175 -0.12977675 -0.29199767 -0.42177442 -0.3649971 0.44610757 0.45421863 0.37310815
-0.22710931 0.26766455 0.42177442 0.04055523 0.68943894 0.68943894 -0.50288486 -0.70566106

sequential/dense_2/MatMul i1 [1, 16] scale=0.0100972885 zero_point=0
00000000: 7f2d 26c0 a6b7 ca07 a4e9 47e6 ebe7 ed78
1.2823557 0.45437798 0.38369697 -0.64622647 -0.90875596 -0.7371021 -0.5452536 0.07068102
-0.92895055 -0.23223764 0.7169075 -0.2625295 -0.21204306 -0.25243223 -0.19184849 1.2116746
